Model: "sequential"
_________________________________________________________________
 Layer (type)                Output Shape              Param #   
=================================================================
 conv1d (Conv1D)             (None, 3, 64)             384       
                                                                 
 bidirectional (Bidirectiona  (None, 3, 128)           66048     
 l)                                                              
                                                                 
 lstm_1 (LSTM)               (None, 3, 64)             49408     
                                                                 
 lstm_2 (LSTM)               (None, 3, 64)             33024     
                                                                 
 gru (GRU)                   (None, 3, 64)             24960     
                                                                 
 lstm_3 (LSTM)               (None, 50)                23000     
                                                                 
 dense (Dense)               (None, 1)                 51        
                                                                 
=================================================================
Total params: 196,875
Trainable params: 196,875
Non-trainable params: 0
_________________________________________________________________
MSE = 75.1122
RMSE = 8.6667
SSE = 378039.7687
MAE = 3.8776
MAPE = 0.2569
R2 = 0.5870
